Created Experiment : CCzeqUEKdsAc
A:\Users\SSY\Documents\GitHub\Invariant-Information-Clustering\train_classifier.py
{'code': 0, 'azure_blob_id': 234}
DefaultEndpointsProtocol=https;AccountName=digocloud;AccountKey=gajF2Kr5ybF1knSwG+B7vPUpMUFudoiPE583IIlOcxeWdX/rtnd5gescD1huOJ3+aI18fEAucDVxMdFnkGcX0g==;EndpointSuffix=core.windows.net
Uploading... HumanSegmantation\CCzeqUEKdsAc\source\train_classifier.py
Upload Succeed!!
Login Complete, Welcome tjxhwl@gmail.com
Classifier(
  (encoder): Sequential(
    (0): ReplicationPad2d((1, 1, 1, 1))
    (1): Conv2d(1, 64, kernel_size=(3, 3), stride=(1, 1))
    (2): BatchNorm2d(64, eps=1e-05, momentum=0.1, affine=True, track_running_stats=True)
    (3): ReLU(inplace=True)
    (4): ReplicationPad2d((1, 1, 1, 1))
    (5): Conv2d(64, 64, kernel_size=(3, 3), stride=(1, 1))
    (6): BatchNorm2d(64, eps=1e-05, momentum=0.1, affine=True, track_running_stats=True)
    (7): ReLU(inplace=True)
    (8): ReplicationPad2d((1, 1, 1, 1))
    (9): Conv2d(64, 128, kernel_size=(3, 3), stride=(1, 1))
    (10): BatchNorm2d(128, eps=1e-05, momentum=0.1, affine=True, track_running_stats=True)
    (11): ReLU(inplace=True)
    (12): ReplicationPad2d((1, 1, 1, 1))
    (13): Conv2d(128, 128, kernel_size=(3, 3), stride=(1, 1))
    (14): BatchNorm2d(128, eps=1e-05, momentum=0.1, affine=True, track_running_stats=True)
    (15): ReLU(inplace=True)
    (16): MaxPool2d(kernel_size=2, stride=2, padding=0, dilation=1, ceil_mode=False)
    (17): ReplicationPad2d((1, 1, 1, 1))
    (18): Conv2d(128, 256, kernel_size=(3, 3), stride=(1, 1))
    (19): BatchNorm2d(256, eps=1e-05, momentum=0.1, affine=True, track_running_stats=True)
    (20): ReLU(inplace=True)
    (21): ReplicationPad2d((1, 1, 1, 1))
    (22): Conv2d(256, 256, kernel_size=(3, 3), stride=(1, 1))
    (23): BatchNorm2d(256, eps=1e-05, momentum=0.1, affine=True, track_running_stats=True)
    (24): ReLU(inplace=True)
    (25): ReplicationPad2d((1, 1, 1, 1))
    (26): Conv2d(256, 256, kernel_size=(3, 3), stride=(1, 1))
    (27): BatchNorm2d(256, eps=1e-05, momentum=0.1, affine=True, track_running_stats=True)
    (28): ReLU(inplace=True)
    (29): MaxPool2d(kernel_size=2, stride=2, padding=0, dilation=1, ceil_mode=False)
    (30): ReplicationPad2d((1, 1, 1, 1))
    (31): Conv2d(256, 512, kernel_size=(3, 3), stride=(1, 1))
    (32): BatchNorm2d(512, eps=1e-05, momentum=0.1, affine=True, track_running_stats=True)
    (33): ReLU(inplace=True)
    (34): ReplicationPad2d((1, 1, 1, 1))
    (35): Conv2d(512, 512, kernel_size=(3, 3), stride=(1, 1))
    (36): BatchNorm2d(512, eps=1e-05, momentum=0.1, affine=True, track_running_stats=True)
    (37): ReLU(inplace=True)
    (38): ReplicationPad2d((1, 1, 1, 1))
    (39): Conv2d(512, 512, kernel_size=(3, 3), stride=(1, 1))
    (40): BatchNorm2d(512, eps=1e-05, momentum=0.1, affine=True, track_running_stats=True)
    (41): ReLU(inplace=True)
    (42): MaxPool2d(kernel_size=2, stride=2, padding=0, dilation=1, ceil_mode=False)
    (43): ReplicationPad2d((1, 1, 1, 1))
    (44): Conv2d(512, 512, kernel_size=(3, 3), stride=(1, 1))
    (45): BatchNorm2d(512, eps=1e-05, momentum=0.1, affine=True, track_running_stats=True)
    (46): ReLU(inplace=True)
    (47): ReplicationPad2d((1, 1, 1, 1))
    (48): Conv2d(512, 512, kernel_size=(3, 3), stride=(1, 1))
    (49): BatchNorm2d(512, eps=1e-05, momentum=0.1, affine=True, track_running_stats=True)
    (50): ReLU(inplace=True)
    (51): ReplicationPad2d((1, 1, 1, 1))
    (52): Conv2d(512, 512, kernel_size=(3, 3), stride=(1, 1))
    (53): BatchNorm2d(512, eps=1e-05, momentum=0.1, affine=True, track_running_stats=True)
    (54): ReLU(inplace=True)
    (55): MaxPool2d(kernel_size=2, stride=2, padding=0, dilation=1, ceil_mode=False)
  )
  (output_block): Vectorizer(
    (classifier): Linear(in_features=512, out_features=10, bias=True)
  )
)
Selected optimization level O1:  Insert automatic casts around Pytorch functions and Tensor methods.

Defaults for this optimization level are:
enabled                : True
opt_level              : O1
cast_model_type        : None
patch_torch_functions  : True
keep_batchnorm_fp32    : None
master_weights         : None
loss_scale             : dynamic
…
